…
th --output_dir exp/asr_train_asr_samba_raw_en_bpe5000_sp/inference_asr_model_valid.acc.best/test_clean/logdir/output.1
2025-08-19 08:46:22,199 (abs_task:2327) INFO: config file: exp/asr_train_asr_samba_raw_en_bpe5000_sp/config.yaml
2025-08-19 08:46:22,448 (asr:540) INFO: Vocabulary size: 5000
2025-08-19 08:46:23,250 (asr_inference:387) WARNING: As non-batch scorers ['decoder'] are found, fall back to non-batch implementation.
2025-08-19 08:46:23,253 (asr_inference:396) INFO: Beam_search: BeamSearch(
  (nn_dict): ModuleDict(
    (decoder): SambaASRDecoder(
      (embed): Sequential(
        (0): Embedding(5000, 512)
        (1): PositionalEncoding(
          (dropout): Dropout(p=0.1, inplace=False)
        )
      )
      (decoders): ModuleList(
        (0-3): 4 x MambaCrossBlock(
          (self_mamba): MambaBlock(
            (in_proj): Linear(in_features=512, out_features=2048, bias=False)
            (conv1d): Conv1d(1024, 1024, kernel_size=(4,), stride=(1,), padding=(3,), groups=1024)
            (act): SiLU()
            (x_proj): Linear(in_features=1024, out_features=64, bias=False)
            (dt_proj): Linear(in_features=32, out_features=1024, bias=True)
            (out_proj): Linear(in_features=1024, out_features=512, bias=False)
          )
          (cross_attention): MultiheadAttention(
            (out_proj): NonDynamicallyQuantizableLinear(in_features=512, out_features=512, bias=True)
          )
          (cross_norm): LayerNorm((512,), eps=1e-05, elementwise_affine=True)
          (norm1): LayerNorm((512,), eps=1e-05, elementwise_affine=True)
          (norm2): LayerNorm((512,), eps=1e-05, elementwise_affine=True)
          (ffn): Sequential(
            (0): Linear(in_features=512, out_features=2048, bias=True)
            (1): ReLU()
            (2): Dropout(p=0.1, inplace=False)
            (3): Linear(in_features=2048, out_features=512, bias=True)
            (4): Dropout(p=0.1, inplace=False)
          )
        )
      )
      (output_layer): Linear(in_features=512, out_features=5000, bias=True)
      (after_norm): LayerNorm((512,), eps=1e-05, elementwise_affine=True)
    )
  )
)
2025-08-19 08:46:23,253 (asr_inference:397) INFO: Decoding device=cuda, dtype=float32
2025-08-19 08:46:23,255 (asr_inference:475) INFO: Text tokenizer: SentencepiecesTokenizer(model="data/en_token_list/bpe_unigram5000/bpe.model")
2025-08-19 08:46:23,257 (asr:512) INFO: Optional Data Names: ('text_spk2', 'text_spk3', 'text_spk4', 'prompt')
Failed to import Flash Attention, using ESPnet default: /lib/x86_64-linux-gnu/libc.so.6: version `GLIBC_2.32' not found (required by /home/asr/.conda/envs/espnet/lib/python3.10/site-packages/flash_attn_2_cuda.cpython-310-x86_64-linux-gnu.so)
…
