…
    (stft): Stft(n_fft=512, win_length=400, hop_length=160, center=True, normalized=False, onesided=True)
    (frontend): Frontend()
    (logmel): LogMel(sr=16000, n_fft=512, n_mels=80, fmin=0, fmax=8000, htk=False)
  )
  (specaug): SpecAug(
    (freq_mask): MaskAlongAxis(mask_width_range=[0, 20], num_mask=1, axis=freq)
    (time_mask): MaskAlongAxis(mask_width_range=[0, 30], num_mask=1, axis=time)
  )
  (normalize): GlobalMVN(stats_file=exp/asr_stats_raw_en_bpe5000_sp/train/feats_stats.npz, norm_means=True, norm_vars=True)
  (encoder): SambaASREncoder(
    (embed): Conv2dSubsamplingForSamba(
      (conv): Sequential(
        (0): Conv2d(1, 512, kernel_size=(3, 3), stride=(2, 2), padding=(1, 1))
        (1): ReLU()
        (2): Conv2d(512, 512, kernel_size=(3, 3), stride=(2, 2), padding=(1, 1))
        (3): ReLU()
      )
      (out): Linear(in_features=10240, out_features=512, bias=True)
      (dropout): Dropout(p=0.1, inplace=False)
    )
    (pos_enc): PositionalEncoding(
      (dropout): Dropout(p=0.1, inplace=False)
    )
    (mamba_blocks): ModuleList(
      (0-5): 6 x MambaBlock(
        (in_proj): Linear(in_features=512, out_features=2048, bias=False)
        (conv1d): Conv1d(1024, 1024, kernel_size=(4,), stride=(1,), padding=(3,), groups=1024)
        (act): SiLU()
        (x_proj): Linear(in_features=1024, out_features=64, bias=False)
        (dt_proj): Linear(in_features=32, out_features=1024, bias=True)
        (out_proj): Linear(in_features=1024, out_features=512, bias=False)
      )
    )
    (layer_norms): ModuleList(
      (0-5): 6 x LayerNorm((512,), eps=1e-06, elementwise_affine=True)
    )
    (final_norm): LayerNorm((512,), eps=1e-06, elementwise_affine=True)
  )
  (decoder): SambaASRDecoder(
    (embed): Sequential(
      (0): Embedding(5000, 512)
      (1): PositionalEncoding(
        (dropout): Dropout(p=0.1, inplace=False)
      )
    )
    (decoders): ModuleList(
      (0-3): 4 x MambaCrossBlock(
        (self_mamba): MambaBlock(
          (in_proj): Linear(in_features=512, out_features=2048, bias=False)
          (conv1d): Conv1d(1024, 1024, kernel_size=(4,), stride=(1,), padding=(3,), groups=1024)
          (act): SiLU()
          (x_proj): Linear(in_features=1024, out_features=64, bias=False)
          (dt_proj): Linear(in_features=32, out_features=1024, bias=True)
          (out_proj): Linear(in_features=1024, out_features=512, bias=False)
        )
        (cross_attention): MultiheadAttention(
          (out_proj): NonDynamicallyQuantizableLinear(in_features=512, out_features=512, bias=True)
        )
        (cross_norm): LayerNorm((512,), eps=1e-05, elementwise_affine=True)
        (norm1): LayerNorm((512,), eps=1e-05, elementwise_affine=True)
        (norm2): LayerNorm((512,), eps=1e-05, elementwise_affine=True)
        (ffn): Sequential(
          (0): Linear(in_features=512, out_features=2048, bias=True)
          (1): ReLU()
          (2): Dropout(p=0.1, inplace=False)
          (3): Linear(in_features=2048, out_features=512, bias=True)
          (4): Dropout(p=0.1, inplace=False)
        )
      )
    )
    (output_layer): Linear(in_features=512, out_features=5000, bias=True)
    (after_norm): LayerNorm((512,), eps=1e-05, elementwise_affine=True)
  )
  (criterion_att): LabelSmoothingLoss(
    (criterion): KLDivLoss()
  )
  (ctc): CTC(
    (ctc_lo): Linear(in_features=512, out_features=5000, bias=True)
    (ctc_loss): CTCLoss()
  )
)

Model summary:
    Class Name: ESPnetASRModel
    Total Number of model parameters: 44.87 M
    Number of trainable parameters: 44.87 M (100.0%)
    Size: 179.47 MB
    Type: torch.float32
[lotus-sys-gpu-33-17] 2025-08-18 10:16:21,054 (abs_task:1404) INFO: Optimizer:
AdamW (
Parameter Group 0
    amsgrad: False
    betas: [0.9, 0.98]
…
